{"format": "torch", "nodes": [{"name": "module", "id": 139773815864864, "class_name": "MyEncoder(\n  (bert): ProteinBertModel(\n    (embed_tokens): Embedding(35, 768, padding_idx=1)\n    (layers): ModuleList(\n      (0): TransformerLayer(\n        (self_attn): MultiheadAttention(\n          (k_proj): Linear(in_features=768, out_features=768, bias=True)\n          (v_proj): Linear(in_features=768, out_features=768, bias=True)\n          (q_proj): Linear(in_features=768, out_features=768, bias=True)\n          (out_proj): Linear(in_features=768, out_features=768, bias=True)\n        )\n        (self_attn_layer_norm): ESM1LayerNorm()\n        (fc1): Linear(in_features=768, out_features=3072, bias=True)\n        (fc2): Linear(in_features=3072, out_features=768, bias=True)\n        (final_layer_norm): ESM1LayerNorm()\n      )\n      (1): TransformerLayer(\n        (self_attn): MultiheadAttention(\n          (k_proj): Linear(in_features=768, out_features=768, bias=True)\n          (v_proj): Linear(in_features=768, out_features=768, bias=True)\n          (q_proj): Linear(in_features=768, out_features=768, bias=True)\n          (out_proj): Linear(in_features=768, out_features=768, bias=True)\n        )\n        (self_attn_layer_norm): ESM1LayerNorm()\n        (fc1): Linear(in_features=768, out_features=3072, bias=True)\n        (fc2): Linear(in_features=3072, out_features=768, bias=True)\n        (final_layer_norm): ESM1LayerNorm()\n      )\n      (2): TransformerLayer(\n        (self_attn): MultiheadAttention(\n          (k_proj): Linear(in_features=768, out_features=768, bias=True)\n          (v_proj): Linear(in_features=768, out_features=768, bias=True)\n          (q_proj): Linear(in_features=768, out_features=768, bias=True)\n          (out_proj): Linear(in_features=768, out_features=768, bias=True)\n        )\n        (self_attn_layer_norm): ESM1LayerNorm()\n        (fc1): Linear(in_features=768, out_features=3072, bias=True)\n        (fc2): Linear(in_features=3072, out_features=768, bias=True)\n        (final_layer_norm): ESM1LayerNorm()\n      )\n      (3): TransformerLayer(\n        (self_attn): MultiheadAttention(\n          (k_proj): Linear(in_features=768, out_features=768, bias=True)\n          (v_proj): Linear(in_features=768, out_features=768, bias=True)\n          (q_proj): Linear(in_features=768, out_features=768, bias=True)\n          (out_proj): Linear(in_features=768, out_features=768, bias=True)\n        )\n        (self_attn_layer_norm): ESM1LayerNorm()\n        (fc1): Linear(in_features=768, out_features=3072, bias=True)\n        (fc2): Linear(in_features=3072, out_features=768, bias=True)\n        (final_layer_norm): ESM1LayerNorm()\n      )\n      (4): TransformerLayer(\n        (self_attn): MultiheadAttention(\n          (k_proj): Linear(in_features=768, out_features=768, bias=True)\n          (v_proj): Linear(in_features=768, out_features=768, bias=True)\n          (q_proj): Linear(in_features=768, out_features=768, bias=True)\n          (out_proj): Linear(in_features=768, out_features=768, bias=True)\n        )\n        (self_attn_layer_norm): ESM1LayerNorm()\n        (fc1): Linear(in_features=768, out_features=3072, bias=True)\n        (fc2): Linear(in_features=3072, out_features=768, bias=True)\n        (final_layer_norm): ESM1LayerNorm()\n      )\n      (5): TransformerLayer(\n        (self_attn): MultiheadAttention(\n          (k_proj): Linear(in_features=768, out_features=768, bias=True)\n          (v_proj): Linear(in_features=768, out_features=768, bias=True)\n          (q_proj): Linear(in_features=768, out_features=768, bias=True)\n          (out_proj): Linear(in_features=768, out_features=768, bias=True)\n        )\n        (self_attn_layer_norm): ESM1LayerNorm()\n        (fc1): Linear(in_features=768, out_features=3072, bias=True)\n        (fc2): Linear(in_features=3072, out_features=768, bias=True)\n        (final_layer_norm): ESM1LayerNorm()\n      )\n    )\n    (contact_head): ContactPredictionHead(\n      (regression): Linear(in_features=72, out_features=1, bias=True)\n      (activation): Sigmoid()\n    )\n    (embed_positions): SinusoidalPositionalEmbedding()\n  )\n)", "parameters": [["bert.embed_out", [35, 768]], ["bert.embed_out_bias", [35]], ["bert.embed_tokens.weight", [35, 768]], ["bert.layers.0.self_attn.bias_k", [1, 1, 768]], ["bert.layers.0.self_attn.bias_v", [1, 1, 768]], ["bert.layers.0.self_attn.k_proj.weig
…
